model/yes_no_model.tflite (tflite, 6124 bytes, 6 tensors)

arith.constant f4 [16]
000000 14 eb 70 be a2 e8 67 3e 93 f0 71 be 37 1a 1d 3c
       -0.23527175 0.22647336 -0.23626928 0.00958877
000010 24 9f 69 3e 3b 43 47 3e 07 a5 96 bd 02 0e b5 3b
       0.22814614 0.1945924 -0.07355695 0.0055253515
000020 58 63 70 3e cc a1 65 be 19 79 72 be f1 32 67 be
       0.23475397 -0.22425002 -0.23679008 -0.22578026
000030 a1 ee 56 3e 91 af 64 be 7b 5c 71 3e bc 4f 8b be
       0.20989467 -0.22332598 0.23570435 -0.2720927

arith.constant1 f4 [2]
000000 f1 a8 72 3e f5 a8 72 be
       0.23697259 -0.23697264

arith.constant2 f4 [2, 16]
000000 13 14 98 be 73 40 5f bd d7 12 59 be 73 fc cc be
       -0.29702815 -0.054504823 -0.21198593 -0.40036353
000010 12 52 b9 3e fa 90 d7 3c 03 e8 af 3e ab b4 ba be
       0.36195427 0.026314247 0.34356698 -0.36465964
000020 39 fc 01 3f 37 40 06 bf 25 ef 99 be 75 f8 18 3e
       0.50775486 -0.52441734 -0.30065265 0.14938529
000030 39 3e 58 3d 53 0b 97 be b1 9e 97 3e cf 95 2a 3e
       0.052793715 -0.29500827 0.2961326 0.1665871
000040 44 cc f7 3e bf 2b 8a be 40 e3 d7 3e 31 13 e3 be
       0.4839803 -0.269865 0.42165565 -0.4435058
000050 ef 48 2c 3d a1 8b 33 be 07 2f bc 3e 0c 93 fc 3e
       0.042061742 -0.17533733 0.3675463 0.49330938
000060 ff 05 f5 be c9 91 f9 be 12 3d b9 3e ed 60 68 3e
       -0.47856137 -0.48744038 0.36179405 0.22693224
000070 8a 09 08 be d5 f7 25 3e e2 89 07 bf 6c d3 38 3e
       -0.13284889 0.16207822 -0.5294477 0.18049401

arith.constant3 f4 [16, 32]
000000 ac 2d a4 be 88 d0 c0 3b 56 0b 8d be 6c c2 56 bd
       -0.32066095 0.005884234 -0.2754771 -0.05243151
000010 c3 18 11 3d d1 bf 2d 3e c1 9c 02 3e 3b 12 1c bd
       0.035424005 0.16967703 0.1275511 -0.038103323
000020 2a 8c 87 3e fe 1b 25 be 50 72 a5 bc a6 e8 27 3e
       0.26474124 -0.1612396 -0.02019611 0.16397342
000030 a2 16 3c be 39 d9 90 3d 07 ab a3 bc a4 1c 74 3e
       -0.18368009 0.07072682 -0.019979013 0.2383905
000040 e1 9c e1 3d 06 84 a7 3e cc a0 cf 3d 5c cd 66 be
       0.110162504 0.32717913 0.101380914 -0.22539276
000050 d8 44 2c 3d 20 89 60 bc f5 f6 4b 3c 46 77 86 3e
       0.042057842 -0.013704568 0.012449016 0.26262873
000060 4d ae c1 be 34 62 07 3e 3c 21 c8 be 71 1f ea bd
       -0.37828293 0.13221055 -0.39087856 -0.11431778
000070 00 78 82 b9 8e 6b 0c 3e a6 a0 91 be f7 ca 96 bd
       -0.0002488494 0.13712904 -0.28442878 -0.07362931
000080 d2 5d 91 3e f4 0f 32 3e 96 c6 0e 3e 79 9d a1 3e
       0.28391892 0.17388898 0.13942942 0.31565455
000090 c8 d6 0c bd 2e 09 58 3e b9 fe 4f 3d 52 3e 25 be
       -0.03438452 0.21097252 0.05078003 -0.16137055
0000a0 c0 2d 53 be 05 4f de 3d d0 15 97 bd 5f 2d db bd
       -0.20622921 0.108549155 -0.07377207 -0.10702013
0000b0 8e cf 30 bd 06 6d c9 3d 48 eb 38 3e bd 1a 95 3d
       -0.04316669 0.09835248 0.18058503 0.072804905
0000c0 d9 73 5d 3e b6 31 71 3e 52 04 8d 3e 5f bd ee 3c
       0.21626224 0.2355412 0.2754236 0.029143034
0000d0 e0 79 9e bc 5b f5 8f be 61 e2 a1 bd 14 74 af be
       -0.019345224 -0.2811688 -0.079045065 -0.34268248
0000e0 e5 97 7b be b4 e8 7b 3e 1a 13 7c be a7 45 d4 3e
       -0.24569662 0.24600488 -0.24616662 0.4145939
0000f0 a3 85 a5 be 43 2d a4 be ac 67 4e be 63 f1 6b 3e
       -0.3232852 -0.32065782 -0.20156735 0.230413
000100 e6 03 68 3e 45 55 5b 3e 70 7d 67 be 10 95 cd 3d
       0.22657737 0.21419246 -0.22606444 0.10038197
000110 86 2c 4b 3c f2 ef c4 bd 85 f7 0d 3e 3c 18 75 3e
       0.012400752 -0.096160784 0.13863952 0.23935026
000120 c0 5c 3f bc 32 af 8c be 2c 3f a6 3d 5b 7b 32 3e
       -0.011679828 -0.27477413 0.08117518 0.17429869
000130 22 3d 81 3e 81 84 20 be 0d c4 a4 be a7 60 7f 3e
       0.25241953 -0.15675546 -0.32180825 0.24939214
000140 b4 34 41 bd fa 24 56 3e 6f 4b 0f 3e c5 a1 cc be
       -0.047169402 0.20912543 0.1399362 -0.3996717
000150 ca 5d 2a 3e 14 05 90 bd 1a 33 6e 3d 67 51 98 3d
       0.1663734 -0.070322186 0.058154203 0.07437401
000160 08 ec 29 be 44 8c 88 be 8c 02 87 3e 2b 19 36 3e
       -0.16593945 -0.26669514 0.2636913 0.17783038
000170 57 66 98 be 76 ad 20 be 3b c4 26 3e 91 20 7d 3d
       -0.2976558 -0.1569117 0.16285793 0.061798636
000180 e8 82 b0 bd e7 0d 75 bd 5f 5e 56 bc f8 12 99 be
       -0.086187184 -0.05982771 -0.013084023 -0.29897285
000190 8e bd 86 3e 40 b6 71 be cc 41 7a 3c 84 f6 b3 be
       0.26316494 -0.23604679 0.015274476 -0.35149014
0001a0 e6 0d ac be 0d dd 7c 3e 26 a3 6b be 74 68 ae be
       -0.33604354 0.24693699 -0.23011455 -0.34064066
0001b0 03 58 ac 3d 1e 58 17 be 0a c1 ab 3e ba 97 8c be
       0.084152244 -0.14779708 0.33545715 -0.27459508
0001c0 25 da cc 3d 20 11 47 3c e1 39 53 3e de 8a 15 3e
       0.10002545 0.012150079 0.20627548 0.14603755
0001d0 12 6b 49 3e 30 2a b1 3d 5e fe 6d 3e 10 fe 6a bd
       0.1966975 0.08650625 0.23241565 -0.0573712
0001e0 34 1b aa be dd 64 80 be b0 a7 84 3d c3 2c 5c 3d
       -0.3322388 -0.25076953 0.06477296 0.053753626
0001f0 d1 f6 9b be 6b 8a ec 3e 6f b8 65 be 9c 41 99 3d
       -0.30461743 0.46199355 -0.22433637 0.07483217
000200 40 e0 bc bd d4 fd 45 3e 6f 2c e5 3d 75 2e 51 3e
       -0.0922246 0.19335109 0.11190116 0.20427878
000210 7b fa 31 be ac 6f 71 be e9 61 d8 3e 51 05 90 3d
       -0.17380707 -0.23577756 0.422622 0.07032264
000220 f6 be 9f 3e 3a 6b 6e 3e 0e 75 45 3e 93 9f a5 be
       0.3120038 0.23283091 0.19282934 -0.32348308
000230 21 22 9f 3e ba ca d1 3d ce 72 84 3e 7d 9a b0 bd
       0.31080726 0.10243745 0.2586884 -0.08623216
000240 53 b2 85 be 70 68 de 3d 72 08 93 3d eb 83 28 bd
       -0.26112613 0.108597636 0.07179345 -0.04114143
000250 4f a3 ad 3e b4 c2 0a be f9 06 15 3e a4 62 cf bd
       0.33913657 -0.13550836 0.14553441 -0.10126236
000260 14 31 a7 bc 4f 25 66 3e 8b d2 65 be 37 5e ca bd
       -0.020409144 0.2247517 -0.22443597 -0.09881251
000270 00 20 9e bd 8d 92 bd be b0 47 6e 3e fb 97 ac be
       -0.07720947 -0.37025872 0.23269534 -0.33709702
000280 99 e1 82 3e f1 bb e6 3d 81 13 18 be b2 c2 4a be
       0.25562742 0.11266316 -0.1485119 -0.19800833
000290 7c 8f 83 3e e9 2e ad 3e cb b0 91 3e d8 14 ae be
       0.25695407 0.33824852 0.28455195 -0.34000278
0002a0 8d 23 78 3e 60 4d 9a 3d ce 9c 35 3e b5 ab 1f 3e
       0.24232312 0.07534289 0.17735597 0.15592845
0002b0 29 c7 38 3e f7 ff f3 3d 5c 1b 94 bc 93 75 1f be
       0.18044724 0.11914056 -0.018079452 -0.15572195
0002c0 c2 db 29 be 97 55 00 be 34 38 21 be f1 6e a9 bd
       -0.16587737 -0.1253265 -0.15744096 -0.082731135
0002d0 68 84 67 be 1a d4 e0 bd cb a3 26 be a3 3e be 3d
       -0.22609103 -0.10977955 -0.1627342 0.09289291
0002e0 de 49 63 3e 2c d6 94 be e1 dd f8 3d 24 35 45 be
       0.22196147 -0.2906965 0.12151695 -0.19258553
0002f0 9a 73 37 be e9 e9 ae be 7c dd 06 3e ae 77 26 3e
       -0.17915192 -0.34162834 0.13170427 0.16256592
000300 f7 00 dc be dc 70 1a 3c 34 f4 55 be 8e f4 09 bd
       -0.42969486 0.009426322 -0.20893937 -0.03368049
000310 33 8b 8d bd 2c ad 8f 3d 7f f5 d3 be 71 ed 4c 3e
       -0.06911316 0.07015452 -0.41398236 0.20012452
000320 51 6f 89 3e 8a f5 09 3b 00 85 9e be 5a 62 18 be
       0.2684274 0.0021050894 -0.30960846 -0.14881268
000330 89 dd a2 3e 62 1a ab be 71 4b 80 3e 18 a8 d3 3d
       0.31809643 -0.33418566 0.25057557 0.10334796
000340 af 20 a2 be 9f 3a 41 bd df f5 8e bd 89 1b 70 be
       -0.3166556 -0.047175046 -0.0698049 -0.23448004
000350 78 60 3a 3d 7e 1d 10 3e 24 a6 98 be c1 61 92 be
       0.045502156 0.1407375 -0.29814255 -0.28590205
000360 f8 1e eb 3d 15 80 6d 3e 2d da 8e be 1d 66 41 3c
       0.11480516 0.2319339 -0.2790083 0.011804131
000370 3a a5 ad be 9a b4 85 be 13 ea af 3e 85 54 5e be
       -0.3391512 -0.2611435 0.34358272 -0.21711929
000380 f0 2a a5 3e 9a 03 8a be 55 f0 02 be 74 dd 06 3e
       0.3225932 -0.26955873 -0.12786992 0.13170415
000390 11 ee dd bd cc 1d a0 3e ff 82 a5 be 8b cc 17 be
       -0.10836423 0.31272733 -0.32326505 -0.1482412
0003a0 96 7a 91 ba 77 da 16 3e 0e 50 26 3e a5 b2 95 be
       -0.0011099156 0.14731775 0.16241476 -0.29237857
0003b0 2c d4 86 3e 14 5b 80 be e1 17 9c be 49 52 e0 3d
       0.2633375 -0.25069487 -0.30486968 0.10953195
0003c0 ad 07 a9 3e ab da b8 bc e1 e0 af bd e8 fd 94 bc
       0.3301367 -0.022565207 -0.08587814 -0.018187478
0003d0 bc e6 a9 be 31 02 88 be e8 91 54 3d ec cd fb 3d
       -0.3318385 -0.26564172 0.05189696 0.12295136
0003e0 93 fd a8 be 3a f7 8c 3d 3b 52 9c 3d 42 c8 ca bd
       -0.33005962 0.06883092 0.07632872 -0.099014774
0003f0 9b de 9c be 55 82 9d 3e 35 82 28 3e ed d4 29 3e
       -0.30638584 0.30763498 0.1645592 0.16585131

sequential_1/dense_1/MatMul f4 [32, 13]
000000 07 3c 3c 3e b0 79 0e 3e 02 ee b5 3e 23 00 af be
       0.18382274 0.13913608 0.35533148 -0.34179792
000010 47 49 3b bd 86 87 9b 3d 16 58 29 be 1d a3 a9 3e
       -0.04572418 0.075942084 -0.16537508 0.33132258
000020 53 19 14 be 3d 5a ad 3d 7b ea 0e 3e dd a5 77 3d
       -0.14462785 0.08464477 0.13956635 0.060460914
000030 17 e2 2c bd 56 ff a6 be 02 2f 16 bd aa 9e 03 be
       -0.042207804 -0.3261668 -0.036665924 -0.12853494
000040 b5 74 46 3e 86 ac 24 be 0f 2c 82 be 9a e6 ab bd
       0.19380458 -0.16081437 -0.2542424 -0.08393593
000050 62 75 b0 be c5 53 0f 3e 7f 3d 91 3e 50 f6 40 bd
       -0.34464556 0.139968 0.2836723 -0.047109902
000060 6d 11 32 3e e7 79 70 be 6c 2c a0 bd fa 42 6f be
       0.1738946 -0.23484002 -0.07820973 -0.23365393
000070 ac cf d0 bd a0 82 90 b9 4c d1 87 3e dc 35 d6 3d
       -0.1019586 -0.00027563144 0.26526868 0.104594916
000080 8a 52 8e be 4e 86 74 3e 03 b6 69 be 3d f1 43 be
       -0.27797347 0.23879358 -0.22823338 -0.19134994
000090 98 6c 88 bd 62 ed 49 be 93 9a 7d 3e be 3a cb bc
       -0.066613376 -0.1971946 0.24765997 -0.024808284
0000a0 c0 86 ae 3d 5e 79 4b 3e 2b 5b b5 3c b6 c5 9c 3e
       0.08521795 0.19870517 0.022138199 0.3061959
0000b0 f5 74 3d 3e 83 09 b4 bb 3c f6 5e bd 69 21 41 bd
       0.18501647 -0.005494298 -0.054434046 -0.047151003
0000c0 77 f6 21 be d2 3c 8c 3d c1 09 9a be 05 3f 4e bc
       -0.15816675 0.06847538 -0.30085567 -0.012588267
0000d0 27 32 33 be 1f bb 3e be d0 85 c4 3d d1 c2 47 be
       -0.174996 -0.18626069 0.09595835 -0.1950791
0000e0 b0 e1 1e be 66 a0 bb 3c 78 79 fd 3d 0b 95 06 3e
       -0.1551578 0.022903632 0.12376684 0.13142793
0000f0 a7 db a7 bd c6 0c 3b 39 6f d9 91 be 14 4c 8e be
       -0.08196192 0.00017838468 -0.284862 -0.27792418
000100 ba b2 76 3e 23 dc 9e 3e fa 9b 8b bd 13 ed b4 be
       0.24091616 0.31027326 -0.068168595 -0.35337123
000110 8a 05 30 3e fa d0 75 3e 20 93 b4 be d7 47 a4 3d
       0.17189613 0.240055 -0.35268497 0.08021515
000120 81 f3 82 be ec e7 30 3e 42 ff 10 be 88 32 89 3e
       -0.25576404 0.17275971 -0.14159873 0.26796365
000130 6b f6 a5 be 37 1f 5d bd 34 69 ce 3d cd ae 89 be
       -0.32414564 -0.053984847 0.1007866 -0.26891175
000140 b6 0e 8d 3e ab aa 88 bd ae 94 6b bd a9 02 bc be
       0.27550286 -0.06673177 -0.05751484 -0.3672078
000150 e1 de df 3d e9 0b 57 3e a8 08 49 3e 69 c8 10 be
       0.10931183 0.21000637 0.19632208 -0.1413895
000160 89 00 fb 3d 82 60 f7 3b 66 0b ab be 9b 8d 92 be
       0.122559614 0.0075493464 -0.33407134 -0.2862366
000170 bb de 52 3e 94 0a 09 bf 77 29 e3 be 51 c7 18 be
       0.20592777 -0.53531766 -0.44367573 -0.14919783
000180 fb 8e 06 be e3 a8 fe bb 8c 37 7d be 4d 58 ab 3d
       -0.1314048 -0.0077715977 -0.2472822 0.083664514
000190 0c 2f bd bc 46 eb 89 be ba ed 6c be d6 bb 3d 3e
       -0.023093723 -0.26937312 -0.2313756 0.18528685
0001a0 b0 36 1f bb 30 ee b4 bc 9d 94 3c 3e ad 2c 04 3e
       -0.002429407 -0.022086233 0.18416066 0.12907667
0001b0 6a 55 20 3d 97 34 52 be af 97 71 be d4 20 a1 3e
       0.039143957 -0.20527874 -0.23593019 0.31470358
0001c0 7b 22 21 3d ba d3 91 3c 6b c7 81 bd 5d 16 10 be
       0.039339524 0.017801154 -0.06336864 -0.14071031
0001d0 43 31 00 be 0f f7 b1 be 3a 85 6e bc e1 c0 b2 3e
       -0.12518792 -0.34758803 -0.014558131 0.3491278
0001e0 8d 82 5d be e9 73 5d 3d 97 bd 7d 3e d9 66 04 3e
       -0.21631832 0.05406562 0.24779354 0.12929858
0001f0 97 4b 3e bd 1a 76 6a 3e d8 c2 c0 bd 4c 21 a9 be
       -0.046458807 0.22896615 -0.094121635 -0.33033216
000200 77 e3 af be df e1 48 3e 3c 7f b0 3e 66 f7 9b be
       -0.3435323 0.19617413 0.34472072 -0.30462188
000210 2e e1 b7 3e 78 4b 30 3e 5e 02 a7 be ef b5 06 be
       0.35913986 0.17216289 -0.32618994 -0.1315534
000220 9c 22 61 3e ec 65 3b be 64 98 96 3e a8 46 0f 3e
       0.21985859 -0.18300599 0.2941314 0.13991797
000230 00 3e e2 3c d8 cf ad 3d a8 83 8f be a6 f4 98 be
       0.027617455 0.08486909 -0.28030133 -0.29874152
000240 dc ca a7 3d ba 81 23 3e 2e 75 ed 3d b1 52 4c be
       0.08192989 0.15967456 0.11594616 -0.1995342
000250 73 33 a3 3e 3c 3f 50 be 74 92 7d bb 2c 18 11 3e
       0.3187519 -0.20336622 -0.003869203 0.14169377
000260 09 5d e4 bd 0b 83 8e be 7c 61 d3 bd 08 69 09 be
       -0.111505575 -0.27834353 -0.10321328 -0.13418972
000270 1c 07 03 be 2d 7b 66 3e aa aa b4 3e 99 90 85 3e
       -0.12795681 0.22507925 0.35286456 0.26086882
000280 09 81 65 be f9 36 86 3e 14 4f 8f be 9d e9 55 3e
       -0.22412504 0.26213816 -0.2799002 0.20889898
000290 15 38 10 3e cd b5 9e 3d c8 ed 88 be d9 6c a4 3d
       0.14083894 0.077495195 -0.26743913 0.080285735
0002a0 52 1d 66 be e7 ce fe bd e8 5c 53 bd 26 4c 03 3e
       -0.22472122 -0.12441807 -0.051602274 0.12822017
0002b0 71 71 84 3e 71 5e 85 3e 3d 2a 6a be 0c db 12 be
       0.258678 0.26048616 -0.22867675 -0.14341372
0002c0 86 34 8a bd fd 4e 66 be 13 fc 92 be 93 6e aa 3e
       -0.06748299 -0.22491069 -0.28707942 0.33287486
0002d0 78 49 16 be 9b de 93 3e af d9 55 be fd c7 a8 3e
       -0.14676464 0.28880772 -0.20883821 0.3296508
0002e0 3b f9 78 3e 4c 9f 0f bc 20 a0 6f be f7 04 3f 3e
       0.24313824 -0.008766007 -0.23400927 0.18654238
0002f0 54 65 be be 1d 8b 0d 3d 55 87 ef bd 8e c7 6f be
       -0.37186682 0.034556497 -0.116957344 -0.23415968
000300 9b 39 05 be 2b c1 5e 3e c5 f2 4d 3d 9a c6 7e be
       -0.13010256 0.21753375 0.05028035 -0.24880448
000310 70 9f b8 3e 32 e2 87 3e 0d 4d da be 73 8e 08 be
       0.3605914 0.2653976 -0.4263691 -0.1333559
000320 a4 70 4a bc 53 a6 93 3d c2 5c 7f be 43 0d 33 3d
       -0.012355957 0.07209458 -0.24937728 0.04371382
000330 89 cb 2c be 93 3e f3 bd c0 38 3d 3b dc 8b 22 3d
       -0.16874518 -0.118771695 0.0028872937 0.03968416
000340 3e a9 66 be 02 fd 5b 3e 31 df 73 be ba 25 b4 3e
       -0.22525498 0.21483234 -0.2381561 0.35185033
000350 1a 8c ab be 3d 2a 45 be 79 90 93 bd bd 22 3e be
       -0.33505327 -0.19254394 -0.0720529 -0.18567939
000360 ee ef 3d 3e 6c 68 1a bd 26 9e a6 3d 4b 6d 0b bd
       0.18548557 -0.03769724 0.08135633 -0.034039777
000370 fe 05 26 be 41 c7 8d 3e 2f 32 6b 3c 09 c9 9b 3e
       -0.16213223 0.2769108 0.014355226 0.30426815
000380 fa 8e f2 3d bf cf 4b 3e 69 d1 2c be 5c 88 6d 3e
       0.11843677 0.19903468 -0.16876759 0.23196548
000390 ee 80 66 bc 85 d0 ba 3e 6a 8b 89 be b0 a5 ee bd
       -0.014068825 0.36487213 -0.26864177 -0.11652696
0003a0 38 fe d6 3d 7b 0f 74 3e 04 cf 93 bd 3b 18 82 be
       0.10497707 0.2383403 -0.072172195 -0.2540911
0003b0 63 bf 78 be c4 12 f5 3d 25 40 ed 3d 5b 2b 59 be
       -0.24291758 0.1196647 0.115845 -0.21207945
0003c0 66 a5 43 be 23 54 64 be 2c 45 b9 be 24 5b 61 be
       -0.19106063 -0.2229772 -0.36185586 -0.22007424
0003d0 0a 04 91 3e 5d c4 3e 3e 7c d5 52 be 01 45 a0 3e
       0.28323394 0.18629594 -0.2058925 0.31302646
0003e0 18 06 77 3e 69 3b c2 be f9 67 92 be cf 1d a8 3d
       0.24123418 -0.3793595 -0.2859495 0.082088105
0003f0 91 e0 55 be 5d 0b bf 3e 20 a3 91 bd ec ce 0f 3e
       -0.20886447 0.37313357 -0.07111192 0.14043778

sequential_1/dense_1/Relu;sequential_1/dense_1/BiasAdd f4 [32]
000000 49 47 a0 3c f2 1c 36 3e 86 15 65 3e 96 b6 40 3e
       0.019565241 0.1778448 0.22371492 0.18819651
000010 88 57 69 be 99 9e c1 bb b4 c6 1c 3d 89 84 8c bd
       -0.22787297 -0.005908799 0.038275436 -0.068612166
000020 1e d2 37 3e d9 4f 62 3e 00 00 00 00 e2 cb 72 be
       0.17951247 0.22100772 0.0 -0.23710588
000030 89 1f 79 be 80 5d 74 be 9b 5d 6c 3e 71 21 76 be
       -0.24328436 -0.23863792 0.23082583 -0.24036194
000040 ab 27 6a 3e ba 44 16 bc 24 59 49 be b0 6f bd 3b
       0.22866695 -0.009171659 -0.1966291 0.0057811365
000050 00 00 00 00 00 00 00 00 27 60 4a 3e 49 62 73 be
       0.0 0.0 0.19763242 -0.23767962
000060 dc cf a4 3c da 23 4e bd 7c 2a 6f 3c 97 a3 0d 3e
       0.020118646 -0.05032716 0.014597531 0.13831936
000070 00 00 00 00 52 78 34 bd 89 b3 22 3e 64 31 6a 3e
       0.0 -0.04406006 0.158888 0.22870404
